backend: tensorflow
class_name: Model
config:
  input_layers:
  - [left_text_input, 0, 0]
  - [left_target, 0, 0]
  - [right_text_input, 0, 0]
  - [right_target, 0, 0]
  layers:
  - class_name: InputLayer
    config:
      batch_input_shape: !!python/tuple [null, 33]
      dtype: float32
      name: left_text_input
      sparse: false
    inbound_nodes: []
    name: left_text_input
  - class_name: InputLayer
    config:
      batch_input_shape: !!python/tuple [null, 37]
      dtype: float32
      name: right_text_input
      sparse: false
    inbound_nodes: []
    name: right_text_input
  - class_name: Embedding
    config:
      activity_regularizer: null
      batch_input_shape: !!python/tuple [null, 33]
      dtype: float32
      embeddings_constraint: null
      embeddings_initializer:
        class_name: RandomUniform
        config: {maxval: 0.05, minval: -0.05, seed: null}
      embeddings_regularizer: null
      input_dim: 11446
      input_length: 33
      mask_zero: false
      name: left_embedding_layer
      output_dim: 50
      trainable: true
    inbound_nodes:
    - - - left_text_input
        - 0
        - 0
        - {}
    name: left_embedding_layer
  - class_name: InputLayer
    config:
      batch_input_shape: !!python/tuple [null, 33, 50]
      dtype: float32
      name: left_target
      sparse: false
    inbound_nodes: []
    name: left_target
  - class_name: Embedding
    config:
      activity_regularizer: null
      batch_input_shape: !!python/tuple [null, 37]
      dtype: float32
      embeddings_constraint: null
      embeddings_initializer:
        class_name: RandomUniform
        config: {maxval: 0.05, minval: -0.05, seed: null}
      embeddings_regularizer: null
      input_dim: 11446
      input_length: 37
      mask_zero: false
      name: right_embedding_layer
      output_dim: 50
      trainable: true
    inbound_nodes:
    - - - right_text_input
        - 0
        - 0
        - {}
    name: right_embedding_layer
  - class_name: InputLayer
    config:
      batch_input_shape: !!python/tuple [null, 37, 50]
      dtype: float32
      name: right_target
      sparse: false
    inbound_nodes: []
    name: right_target
  - class_name: Concatenate
    config: {axis: -1, name: left_text_target, trainable: true}
    inbound_nodes:
    - - - left_embedding_layer
        - 0
        - 0
        - &id001 {}
      - - left_target
        - 0
        - 0
        - *id001
    name: left_text_target
  - class_name: Concatenate
    config: {axis: -1, name: right_text_target, trainable: true}
    inbound_nodes:
    - - - right_embedding_layer
        - 0
        - 0
        - &id002 {}
      - - right_target
        - 0
        - 0
        - *id002
    name: right_text_target
  - class_name: LSTM
    config:
      activation: tanh
      activity_regularizer: null
      bias_constraint: null
      bias_initializer:
        class_name: Zeros
        config: {}
      bias_regularizer: null
      dropout: 0.0
      go_backwards: false
      implementation: 1
      kernel_constraint: null
      kernel_initializer:
        class_name: VarianceScaling
        config: {distribution: uniform, mode: fan_avg, scale: 1.0, seed: null}
      kernel_regularizer: null
      name: left_lstm
      recurrent_activation: hard_sigmoid
      recurrent_constraint: null
      recurrent_dropout: 0.0
      recurrent_initializer:
        class_name: Orthogonal
        config: {gain: 1.0, seed: null}
      recurrent_regularizer: null
      return_sequences: false
      return_state: false
      stateful: false
      trainable: true
      unit_forget_bias: true
      units: 100
      unroll: false
      use_bias: true
    inbound_nodes:
    - - - left_text_target
        - 0
        - 0
        - {}
    name: left_lstm
  - class_name: LSTM
    config:
      activation: tanh
      activity_regularizer: null
      bias_constraint: null
      bias_initializer:
        class_name: Zeros
        config: {}
      bias_regularizer: null
      dropout: 0.0
      go_backwards: false
      implementation: 1
      kernel_constraint: null
      kernel_initializer:
        class_name: VarianceScaling
        config: {distribution: uniform, mode: fan_avg, scale: 1.0, seed: null}
      kernel_regularizer: null
      name: right_lstm
      recurrent_activation: hard_sigmoid
      recurrent_constraint: null
      recurrent_dropout: 0.0
      recurrent_initializer:
        class_name: Orthogonal
        config: {gain: 1.0, seed: null}
      recurrent_regularizer: null
      return_sequences: false
      return_state: false
      stateful: false
      trainable: true
      unit_forget_bias: true
      units: 100
      unroll: false
      use_bias: true
    inbound_nodes:
    - - - right_text_target
        - 0
        - 0
        - {}
    name: right_lstm
  - class_name: Concatenate
    config: {axis: -1, name: left_right_lstm_merge, trainable: true}
    inbound_nodes:
    - - - left_lstm
        - 0
        - 0
        - &id003 {}
      - - right_lstm
        - 0
        - 0
        - *id003
    name: left_right_lstm_merge
  - class_name: Dense
    config:
      activation: softmax
      activity_regularizer: null
      bias_constraint: null
      bias_initializer:
        class_name: RandomUniform
        config: {maxval: 0.003, minval: -0.003, seed: null}
      bias_regularizer: null
      kernel_constraint: null
      kernel_initializer:
        class_name: RandomUniform
        config: {maxval: 0.003, minval: -0.003, seed: null}
      kernel_regularizer: null
      name: output
      trainable: true
      units: 3
      use_bias: true
    inbound_nodes:
    - - - left_right_lstm_merge
        - 0
        - 0
        - {}
    name: output
  name: model_1
  output_layers:
  - [output, 0, 0]
keras_version: 2.1.3
